ai_server/weights/conv3d_m.pt (torch, 392489 bytes, 26 tensors)

feature_extract.0.weight f4 [8, 1, 1, 3, 3]
0	0x3e791658	0.2432493
1	0x3e8d481f	0.27594087
2	0xbd82b4da	-0.06382151
3	0x3e9a21cb	0.30103907
4	0xbd850997	-0.0649597
5	0x3dacdc3e	0.08440445
6	0xbe22d892	-0.15902928
7	0x3e4d11e1	0.20026352
8	0x3e9ad528	0.3024075
9	0xbe7b2c5b	-0.24528639
10	0x3e936eb9	0.28795412
11	0x3d75f228	0.06004539
12	0x3e7acceb	0.24492233
13	0x3d32cdd5	0.043653328
14	0x3e2291d8	0.15875947
15	0xbd445756	-0.047934853
16	0x3e82e56e	0.25565666
17	0x3d40b60d	0.047048617
18	0xbe1f340a	-0.15547195
19	0x3dadda12	0.08488859
20	0xbe1d1eba	-0.15343753
21	0xbd1ff8c8	-0.039055616
22	0xbe0a8262	-0.135263
23	0x3e6239a6	0.22092304
24	0xbe869908	-0.2628863
25	0xbe1d36a5	-0.15352876
26	0xbdc09724	-0.09403828
27	0xbe49bb6d	-0.19700404
28	0x3d37970f	0.044821795
29	0xbe9ed192	-0.31019264
30	0x3e9f1644	0.31071675
31	0xbe8afe7a	-0.27147275
32	0x3e8a20cc	0.26978147
33	0x3d860b41	0.06545115
34	0xbdc86911	-0.09785665
35	0x3e5d6042	0.2161875
36	0x3d705b75	0.05868097
37	0x3e8c6a78	0.2742498
38	0x3d3ac7a1	0.045600537
39	0xbdc85fcb	-0.09783896
40	0x3dc2a388	0.09503847
41	0xbda7fd47	-0.08202606
42	0x3e13ae47	0.1442195
43	0x3e99b24f	0.3001885
44	0x3e48fd88	0.19627964
45	0xbe14b53a	-0.14522257
46	0x3e45b940	0.19308949
47	0x3d75ca6d	0.0600075
48	0x3e2f2f00	0.17107773
49	0xbe4e3fd1	-0.20141532
50	0xbea80af8	-0.32820868
51	0xbe026305	-0.12733085
52	0xbe824658	-0.25444293
53	0x3e8d0e8f	0.2755017
54	0x3dc1afe7	0.09457379
55	0x3e0a5a0e	0.13510916
56	0x3dbf9a19	0.09355564
57	0xbc04fbfd	-0.008116719
58	0x3e808485	0.25101104
59	0xbe7e3679	-0.24825467
60	0x3c9f2720	0.019427836
61	0xbe6f37a4	-0.23361069
62	0x3db4fa54	0.08836809
63	0xbdef003a	-0.11669965
64	0x3dc99d19	0.09844417
65	0xbd9a1bf0	-0.0752486
66	0x3e8c1a7d	0.2736396
67	0xbe4ee507	-0.20204554
68	0xbe5133ce	-0.20429918
69	0xbe4b0547	-0.19826232
70	0x3e975f08	0.2956469
71	0x3dd96e05	0.10616688

feature_extract.0.bias f4 [8]
0	0x3ea51773	0.32244453
1	0xbe8d9f8d	-0.2766079
2	0xbea92049	-0.33032444
3	0xbe806a65	-0.25081173
4	0xbe61b3f8	-0.22041309
5	0x3e0ac6ff	0.13552473
6	0x3e06c283	0.13160138
7	0x3e91c473	0.2847019

feature_extract.2.weight f4 [8]
0	0x3f7fd0e7	0.99928135
1	0x3f7ecb75	0.995292
2	0x3f7fc43c	0.99908805
3	0x3f818c43	1.012093
4	0x3f7e9096	0.9943937
5	0x3f80a6b1	1.005087
6	0x3f7f0bb1	0.99627215
7	0x3f80148d	1.0006272

feature_extract.2.bias f4 [8]
0	0x3b200e94	0.0024422752
1	0xbc09fb33	-0.008421707
2	0x3be0b4a8	0.0068574734
3	0xbc844b8a	-0.016149301
4	0xbb9eaf0c	-0.0048426446
5	0xbc101c3d	-0.008795795
6	0x3bb1cc64	0.0054259766
7	0x3c0b5f46	0.008506602

feature_extract.2.running_mean f4 [8]
0	0x3f3cdeb3	0.7377731
1	0x3d68e6b2	0.056860633
2	0x00000000	0.0
3	0x3774cad7	1.4590761e-05
4	0x3e05a4b1	0.13051106
5	0x3cbac5e5	0.022799442
6	0x3e529bd6	0.20567259
7	0x3e8d2eb6	0.275747

feature_extract.2.running_var f4 [8]
0	0x3ce8a8a4	0.028400727
1	0x3c17d8ed	0.009268028
2	0x28336693	9.958738e-15
3	0x358a3ed1	1.0300083e-06
4	0x3c94f503	0.018183237
5	0x3a214a6e	0.00061527535
6	0x3a93f756	0.0011288922
7	0x3951d917	0.00020012665

feature_extract.4.weight f4 [32, 8, 1, 3, 3]
0	0xbd772d25	-0.060345788
1	0xbd9ce47e	-0.07660769
2	0x3d860328	0.06543571
3	0xbd288593	-0.04114301
4	0x3da42bdd	0.08016179
5	0xbca4ac69	-0.020101743
6	0x3d94d42b	0.0726703
7	0xbdaba364	-0.08380774
8	0xbd57ceb3	-0.052687358
9	0x3d20762d	0.0391752
10	0x3d055f8c	0.032561824
11	0xbcb173d4	-0.021661676
12	0x3d9b465b	0.075817786
13	0x3db9d5da	0.09073992
14	0xbd973999	-0.07384033
15	0xbd70df23	-0.05880655
16	0x3dee4c23	0.11635616
17	0xbcf3df75	-0.029769639
18	0xbd132413	-0.035923075
19	0xbddd6857	-0.10810917
20	0xbd7c59d8	-0.06160912
21	0x3d104f48	0.03523186
22	0xbc1f4a4d	-0.0097223045
23	0xbda31f3a	-0.0796494
24	0x3c0c9707	0.00858093
25	0xbd98ccd9	-0.074609466
26	0xbdc0a9fa	-0.094074205
27	0xbd89bb07	-0.06725126
28	0xbdd4fc14	-0.103996426
29	0xbd92c92c	-0.07167277
30	0x3dfe42df	0.124150984
31	0x3cc8a8e7	0.024494601
32	0x3d1d7878	0.038444966
33	0xbde2565c	-0.11051628
34	0xbda05b19	-0.078298755
35	0xbd247e3e	-0.040159456
36	0x3ca5f96e	0.020260539
37	0xbdca488d	-0.09877119
38	0xbd400419	-0.046878908
39	0xbd854799	-0.06507797
40	0x3c1c4d75	0.009539952
41	0xbd12cbca	-0.03583888
42	0xbb2f4d1e	-0.0026748846
43	0xbd94bb48	-0.072622836
44	0xbd97e418	-0.07416552
45	0xbd93289c	-0.0718548
46	0xbd3353ab	-0.043780964
47	0xbdc1c380	-0.09461117
48	0x3db95c48	0.090508044
49	0xbcf24a85	-0.02957655
50	0x3dc4ef47	0.09615951
51	0x3cf8b8f6	0.030361634
52	0xbdd6f436	-0.10495798
53	0x3da32bde	0.079673514
54	0xbd0b62bb	-0.034029704
55	0xbd34ff08	-0.04418853
56	0xbdc3e831	-0.09565771
57	0xbde7522a	-0.112949684
58	0x3d271ae1	0.040797118
59	0xbcb84415	-0.022493402
60	0x3d5c2cfb	0.053753834
61	0xbdb34dc7	-0.08755069
62	0x3dc708cb	0.09718474
63	0xbda7923d	-0.081821896
64	0xbc51a9d5	-0.012796839
65	0x3cf5b554	0.02999369
66	0x3d8a5214	0.067539364
67	0x3dccc2a8	0.09998065
68	0x3de7a666	0.11311035
69	0xbdc423ee	-0.095771655
70	0x3d078575	0.03308626
71	0xbd4aec05	-0.049541492
72	0xbc8d3935	-0.017239193
73	0xbdbb4012	-0.0914308
74	0x3dda89a8	0.10670787
75	0xbdb9f00c	-0.090789884
76	0x3d7490d4	0.05970843
77	0x3d278232	0.04089565
78	0x3d09b613	0.033620905
79	0xbd894ffb	-0.06704708
80	0x3dd965eb	0.106151424
81	0x3ca56b91	0.020192893
82	0x3c34c887	0.011034138
83	0xbdd5b65f	-0.10435175
84	0x3d363299	0.044481847
85	0xbcaf2c81	-0.021383526
86	0xbd5a8e3e	-0.05335831
87	0x3dc4168b	0.09574612
88	0x3cb64561	0.02224988
89	0xbd85ad5d	-0.06527207
90	0xbd6e958f	-0.0582481
91	0xbb8c20da	-0.004276377
92	0x3d89669a	0.06709023
93	0xbceb7222	-0.028740946
94	0xbd86d47f	-0.06583499
95	0xbd1fa32f	-0.038973983
96	0xbdb16431	-0.08661688
97	0x3d3182ee	0.043337755
98	0x3dbd68c1	0.09248496
99	0xbdd3376e	-0.10313307
100	0x3d121878	0.035667866
101	0x3d8b6175	0.06805698
102	0x3ccaa90c	0.024738811
103	0xbd1e62ae	-0.038668327
104	0x3d841b25	0.0645049
105	0x3d8b9191	0.06814874
106	0x3d4dd538	0.05025217
107	0xbc6d00f0	-0.014465556
108	0xbd12c59c	-0.035832986
109	0x3c1aa11a	0.009437824
110	0xbcad8dd8	-0.0211858
111	0xbd20f7df	-0.03929889
112	0x3d93b599	0.072123714
113	0x3dcf567b	0.10123917
114	0xbc878daa	-0.016547043
115	0xbcf32b8b	-0.029683849
116	0x3a84ec99	0.0010141312
117	0xbb8dd14a	-0.0043279277
118	0x3cf9fbd8	0.030515596
119	0x3d020b97	0.031749334
120	0xbdd87489	-0.10569102
121	0xbd2cf83d	-0.042228926
122	0x3dca6ccc	0.098840326
123	0x3d4acbf6	0.04951092
124	0xbba156c2	-0.0049236724
125	0xbd90b191	-0.07065118
126	0xbd99e4a7	-0.07514315
127	0xbddd1f6d	-0.107970096
128	0xbd237958	-0.039910644
129	0x3d19fbed	0.03759377
130	0x3d954aa9	0.07289631
131	0x3d5e2543	0.054234754
132	0xbdda27b2	-0.106521025
133	0xbd95bbf5	-0.073112406
134	0xbc9bcd93	-0.019018924
135	0x3def23a0	0.11676717
136	0x3c879f61	0.01655549
137	0xbcfcd37b	-0.03086256
138	0x3d4ebd2c	0.050473377
139	0xbd2bd0d1	-0.04194719
140	0xbd9fd367	-0.07803994
141	0x3db07660	0.08616328
142	0xbd6265dc	-0.055272922
143	0xbce96045	-0.028488288
144	0xbddd9ba7	-0.10820704
145	0x3dad4d3c	0.08461997
146	0x3dc51591	0.09623254
147	0x3d501239	0.05079863
148	0xbd9d75e6	-0.07688503
149	0xbde05e77	-0.10955518
150	0xbdb87419	-0.09006519
151	0x3dbb1aaa	0.09135945
152	0x3d810b1b	0.06300946
153	0x3ddb79dd	0.10716603
154	0x3d83eeda	0.06442042
155	0x3d1559f1	0.036462728
156	0x3bd1eb00	0.006406188
157	0xbdacaec9	-0.08431775
158	0xbdbc3cbb	-0.09191271
159	0xbdd4cd31	-0.103907
160	0x3d51455d	0.05109154
161	0xbd4680f3	-0.04846282
162	0xbcf15468	-0.029459193
163	0xbd969447	-0.073525004
164	0xbcdef9b4	-0.027218677
165	0xbdb58642	-0.08863498
166	0xbda95dec	-0.08269867
167	0x3d085f17	0.03329381
168	0xbd26efce	-0.04075604
169	0x3d89101b	0.06692525
170	0xbd325309	-0.04353622
171	0xbdc6b7d8	-0.09703034
172	0xbcc2b671	-0.023768635
173	0xbd65a84f	-0.056068715
174	0xbd213284	-0.039354816
175	0xbdec488c	-0.11537275
176	0x3d85c32f	0.06531369
177	0xbdadf8d4	-0.08494726
178	0x3d6638c2	0.056206472
179	0x3d4eabaa	0.05045668
180	0x3dbe4e81	0.09292317
181	0xbdaf14e3	-0.08548906
182	0x3dbaba51	0.09117568
183	0xbd4402f8	-0.047854394
184	0x3d44f1d1	0.048082177
185	0x3df040ae	0.11731087
186	0xbc2c7e0f	-0.010528102
187	0xb926a889	-0.00015893778
188	0xbca27639	-0.019831764
189	0xbdc6436b	-0.09680828
190	0x3d5d4db0	0.054029167
191	0xbdf5d37b	-0.12003227
192	0x3d9d73bf	0.076880924
193	0x3db2b008	0.087249815
194	0x3dea02c8	0.11426312
195	0xbcc601bb	-0.024170747
196	0xbdb7d07a	-0.089753106
197	0x3d0075f1	0.031362478
198	0x3d984cf6	0.07436554
199	0xbde49a81	-0.11162282
200	0xbcb8ba53	-0.022549784
201	0xbd811220	-0.06302285
202	0xbbad3d94	-0.0052868817
203	0xbd5b83c3	-0.053592455
204	0xbd0ff0c1	-0.03514171
205	0xbcd9d9bf	-0.026593087
206	0xbddbd064	-0.10733107
207	0x3dcad21b	0.09903356
208	0x3dcb3a7a	0.09923263
209	0xbcebcf8d	-0.028785491
210	0xbc17ef54	-0.009273369
211	0xbd4a69c1	-0.04941726
212	0xbde60d97	-0.11233061
213	0xbdf64f95	-0.12026898
214	0x3d5026b8	0.050818175
215	0xbd7bcf56	-0.061477028
216	0xbd8ddc9b	-0.06926843
217	0xbbffe907	-0.0078097614
218	0xbd2d6690	-0.04233414
219	0xbd050b49	-0.032481465
220	0x3badb64e	0.0053012734
221	0xbcda99aa	-0.0266846
222	0xbd1c015b	-0.03808723
223	0xbd615604	-0.05501367
224	0xbdc7121b	-0.0972025
225	0x3dd048ad	0.10170112
226	0xbd4cdf5e	-0.050017707
227	0x3cd36bc7	0.025808228
228	0xbd1f49ea	-0.03888885
229	0x3bcf8815	0.006333361
230	0x3dd0a5ac	0.101878494
231	0x3d58a9a5	0.05289616
232	0xbddbc98b	-0.10731801
233	0x3d1ff23e	0.03904938
234	0x3dd9f578	0.106425226
235	0x3cd1fee4	0.025634237
236	0x3d96b988	0.07359606
237	0x3de2cb88	0.11073977
238	0xbcbf8f91	-0.023383887
239	0x3c9c6f67	0.01909609
240	0xbdb28a7c	-0.0871782
241	0xbcf28947	-0.029606475
242	0x3da7a4a0	0.081856966
243	0x3d821aa9	0.06352741
244	0xbd85b159	-0.06527967
245	0xbdd00339	-0.10156865
246	0xbdb7d516	-0.0897619
247	0xbe0082d3	-0.12549905
248	0xbdcd1e87	-0.10015588
249	0xbd1d5c3b	-0.038418036
250	0x3d8fb14b	0.07016238
251	0x3c2a85ce	0.010407878
252	0xbdab0d91	-0.08352197
253	0xbdc05e9c	-0.09393045
254	0x3d64ec5a	0.055889465
255	0xbdaab40d	-0.08335123

feature_extract.4.bias f4 [32]
0	0x3c4c3295	0.012463232
1	0x3d930342	0.07178356
2	0x3dd81e5c	0.105526656
3	0xbda0483d	-0.07826278
4	0x3d437809	0.047721896
5	0xbd85a80c	-0.06526193
6	0xbdc72a74	-0.09724894
7	0xbc3ddbd6	-0.0115880575
8	0xbd8d3d66	-0.068964764
9	0xbdc655a9	-0.09684307
10	0xbdf1dc7f	-0.118096344
11	0xbdbe5e3d	-0.09295318
12	0x3dcfad6b	0.10140499
13	0x3d6f386a	0.05840341
14	0xbd69a28d	-0.057039786
15	0xbd8a42e8	-0.067510426
16	0xbdc37540	-0.09543848
17	0xbd9047f6	-0.070449755
18	0xbd3e33ea	-0.046436228
19	0x3d836325	0.06415395
20	0x3d3fece0	0.04685676
21	0xbd4ce652	-0.050024338
22	0x3d97a1b5	0.0740389
23	0xbdb01d37	-0.08599322
24	0xbdbbb817	-0.09165972
25	0x3d013a2f	0.03154963
26	0xbd894fcd	-0.06704674
27	0x3ce96f27	0.028495384
28	0x3db8a6e5	0.090162076
29	0xbd8128c0	-0.063066006
30	0xbda56daf	-0.08077561
31	0x3cea8bc4	0.028631099

feature_extract.6.weight f4 [32]
0	0x3f7f63c6	0.9976162
1	0x3f80464c	1.0021453
2	0x3f7de0a6	0.9917091
3	0x3f80647c	1.0030665
4	0x3f80888d	1.0041672
5	0x3f8111fb	1.0083612
6	0x3f7f7395	0.9978574
7	0x3f7ffaab	0.99991864
8	0x3f7fa5ad	0.99862176
9	0x3f7ddd79	0.99166065
10	0x3f8030d0	1.0014896
11	0x3f804cb2	1.0023406
12	0x3f7dfd17	0.9921431
13	0x3f7fa409	0.9985967
14	0x3f7e962f	0.9944791
15	0x3f7e1415	0.9924939
16	0x3f7ef3b3	0.99590605
17	0x3f807e97	1.0038632
18	0x3f7d40a6	0.9892677
19	0x3f7fb257	0.998815
20	0x3f7ddc44	0.99164224
21	0x3f7dd0be	0.9914664
22	0x3f807c77	1.0037984
23	0x3f80215f	1.0010184
24	0x3f7ef1c9	0.99587685
25	0x3f81bd6c	1.0135932
26	0x3f805f6b	1.0029119
27	0x3f80837c	1.0040126
28	0x3f8048ef	1.0022258
29	0x3f7d9966	0.9906219
30	0x3f7f05ea	0.996184
31	0x3f804da7	1.0023698

feature_extract.6.bias f4 [32]
0	0x3c3cdc2c	0.011527102
1	0xbbbf2a56	-0.0058339043
2	0x3bfbba81	0.007682145
3	0x3c9baf5c	0.019004516
4	0x3bcac62f	0.006188176
5	0xbc26b175	-0.010174145
6	0x3a6d33a6	0.0009048529
7	0x3bbc2af5	0.0057424256
8	0x3be908f8	0.007111665
9	0xba97846a	-0.0011559848
10	0x3c506c3c	0.012721118
11	0x3cb2831d	0.021791035
12	0xbba8cd79	-0.0051514474
13	0xbb1f9a8c	-0.0024353592
14	0xbc939648	-0.018015996
15	0xb9e27020	-0.0004318962
16	0x3c955b2c	0.01823195
17	0xbad5d176	-0.0016313035
18	0x3bbf0faa	0.0058307247
19	0x3c3d24dc	0.0115444325
20	0xbb890df7	-0.004182573
21	0x3c98f69b	0.018672278
22	0x3a339047	0.0006849807
23	0x39b244da	0.00034002104
24	0xbb0a00ce	-0.0021057609
25	0xbbb88845	-0.005631479
26	0xbc30d548	-0.010793038
27	0xbc09e452	-0.008416252
28	0xbae666ea	-0.0017578278
29	0x3c1b6566	0.0094846245
30	0xbbf3c10d	-0.007438785
31	0x3c77b399	0.015118503

feature_extract.6.running_mean f4 [32]
0	0x3e312947	0.17300902
1	0x3dd51968	0.104052365
2	0x3daca474	0.084298044
3	0x3ce36ff2	0.02776334
4	0x3d822e06	0.063564345
5	0x3dd552f1	0.104162104
6	0x3da70501	0.08155251
7	0x3dc5a2dd	0.09650204
8	0x3eec7b76	0.46187943
9	0x3d23e642	0.040014513
10	0x3de887b0	0.11354005
11	0x3d4056e4	0.046957865
12	0x3dcdefe6	0.100555226
13	0x3ee07f45	0.438471
14	0x3e2aea2e	0.16690895
15	0x3e4e49c0	0.20145321
16	0x3e62d4ac	0.2215144
17	0x3dfc026e	0.12305151
18	0x3e979098	0.29602504
19	0x3ecacfd7	0.39611694
20	0x3e4e179e	0.20126197
21	0x3da25fd9	0.07928438
22	0x3e3d5f8d	0.18493481
23	0x3d9d32b1	0.07675684
24	0x3e439cab	0.19102733
25	0x3da2e1b6	0.07953207
26	0x3c813e07	0.015776647
27	0x3dd60179	0.104495
28	0x3e47e7ba	0.1952199
29	0x3d19c580	0.037541866
30	0x3e944726	0.28960532
31	0x3d2f352e	0.042775325

feature_extract.6.running_var f4 [32]
0	0x3d1ea3aa	0.0387303
1	0x3cb749af	0.022374002
2	0x3c61e322	0.013787063
3	0x3bba4eae	0.005685649
4	0x3c1d78c2	0.00961131
5	0x3d3123bf	0.04324698
6	0x3d011dab	0.031522434
7	0x3c993055	0.018699804
8	0x3f182241	0.5942727
9	0x3c48e0e4	0.012260649
10	0x3d093d25	0.033505578
11	0x3cc33c5b	0.02383249
12	0x3c6359ac	0.01387636
13	0x3e572e04	0.21013647
14	0x3dbd208e	0.09234725
15	0x3d826e1c	0.06368658
16	0x3e1b71aa	0.15180078
17	0x3d18da06	0.0373173
18	0x3e7c5f43	0.24645714
19	0x3da859fd	0.08220289
20	0x3d0d3426	0.03447356
21	0x3c797992	0.0152267385
22	0x3d36f6ea	0.04466907
23	0x3d237796	0.039908968
24	0x3dd13e29	0.10216934
25	0x3cbb1755	0.022838274
26	0x3b8946f1	0.004189365
27	0x3c9b1953	0.018932974
28	0x3d2aeb63	0.04172839
29	0x3c702f40	0.014659703
30	0x3dde8897	0.10865896
31	0x3ca432fd	0.020043844

feature_extract.8.weight f4 [64, 32, 1, 3, 3]
0	0xbd4b5d3f	-0.049649473
1	0x3d6396e8	0.055563837
2	0xbcd7deb4	-0.02635131
3	0x3cf27f2f	0.029601661
4	0xbd3ed4b8	-0.046589583
5	0xbd1cbb8b	-0.038264792
6	0x3bb4956b	0.005510976
7	0x3ca40788	0.020023122
8	0x3d398ea9	0.045302067
9	0x3d523965	0.051324267
10	0xbb14a7d5	-0.0022683043
11	0xbc1732ca	-0.009228418
12	0x3c08a331	0.008339689
13	0xbc5ba4a9	-0.013405957
14	0x3aea0cd1	0.0017856603
15	0xbd6bc299	-0.05755863
16	0xbd408b2f	-0.047007736
17	0x3d266128	0.04062
18	0xbd0a74c0	-0.033802748
19	0x3d3ec0c3	0.04657055
20	0x3bf6a075	0.007526452
21	0x3c69161d	0.014226464
22	0x3d599d3b	0.053128462
23	0xbd039359	-0.032122944
24	0xbc3239ef	-0.01087807
25	0x3c08d730	0.008352086
26	0x3c9b7bde	0.018979963
27	0xbd810b5d	-0.063009955
28	0x3c8f6603	0.017504698
29	0xbd03320b	-0.032030147
30	0x3ba27804	0.0049581546
31	0x3d0faf83	0.03507949
32	0xbbd6352b	-0.0065371
33	0xbb95b7cf	-0.004569031
34	0xbbaeda84	-0.0053361077
35	0x3d4a68bb	0.049416285
36	0x3cf1f7b3	0.029537058
37	0x3c477126	0.012172973
38	0xbd134dea	-0.035962977
39	0xbceaa706	-0.028644096
40	0x3d55bcbf	0.052181955
41	0x3d3e3907	0.046441104
42	0x3d1c1563	0.038106333
43	0xbd32b7cc	-0.043632314
44	0x3d3797cf	0.04482251
45	0x3b944df3	0.004525894
46	0x3d4eb1e0	0.050462604
47	0x3d72d628	0.059286267
48	0x3b832680	0.0040023923
49	0xbcdeadb8	-0.027182445
50	0x3d6407c6	0.055671476
51	0xbd061d16	-0.032742582
52	0x3d112d6f	0.03544372
53	0xbd74a72e	-0.059729747
54	0xbc92d097	-0.017921729
55	0xbd48bb7e	-0.04900693
56	0xbcc18769	-0.023624139
57	0x3cee9670	0.029124469
58	0xbd1a4439	-0.03766272
59	0xbd3774fc	-0.0447893
60	0x3d1f06b8	0.038824767
61	0x3cf8c2f3	0.030366397
62	0xba01120f	-0.00049236504
63	0xbd21e0d5	-0.039521057
64	0xbc692d70	-0.014232025
65	0xbc961c51	-0.01832405
66	0x3d296ca4	0.041363373
67	0xbc7ad2a5	-0.015309011
68	0xbc680db2	-0.0141634215
69	0xbd15e7c3	-0.03659798
70	0xbcc104c5	-0.023561845
71	0x3d06d606	0.032918952
72	0x3d1cd4c2	0.03828884
73	0x3c25cd80	0.010119796
74	0xbc9b2a0e	-0.018940952
75	0x3d61e31f	0.05514824
76	0x3c33cc67	0.010974026
77	0xbcb3e5c6	-0.02196015
78	0xbcc00839	-0.02344142
79	0xbc1ccd01	-0.009570361
80	0x3cdb09ac	0.02673801
81	0x3cd98a79	0.026555287
82	0x3d42462e	0.04743021
83	0x3bcce7b1	0.0062532057
84	0x3d49420b	0.04913525
85	0xbcbd8ec1	-0.02313936
86	0xbca793f5	-0.020456294
87	0xbcb82cd1	-0.022482308
88	0xbd50d84c	-0.050987527
89	0xbd177fa5	-0.036986966
90	0xbd563b2b	-0.05230252
91	0x3b5160df	0.0031948609
92	0x3c14359a	0.009045983
93	0xbc85f7e2	-0.016353551
94	0xbd1e38af	-0.038628276
95	0x3d5a1d81	0.053250793
96	0xbcb539d4	-0.022122301
97	0x3cf035f8	0.02932261
98	0x3d25d8fe	0.040490143
99	0xbd06f410	-0.0329476
100	0xbb0dc9c0	-0.0021635145
101	0x3d22dd87	0.039762046
102	0x3d6f3611	0.05840117
103	0xbbce7cf5	-0.006301517
104	0x3d3a5f04	0.04550077
105	0xbd4bd006	-0.049758933
106	0xbd2821cf	-0.041047867
107	0x3d3fcbd9	0.046825264
108	0xbb19a2e4	-0.0023443038
109	0x3d77a054	0.060455635
110	0x3bd9d778	0.0066480003
111	0xbcc54558	-0.024080917
112	0x3d69cd9b	0.057080846
113	0x3d56470b	0.052313846
114	0x3b85e353	0.004085937
115	0xbd1a44fd	-0.03766345
116	0xbb92e922	-0.004483358
117	0xbcd42d3f	-0.025900481
118	0x3d3b371f	0.045706864
119	0x3bae7d61	0.005325005
120	0x3c395c1e	0.011313466
121	0x3d0ff67d	0.03514718
122	0x3ca29029	0.019844132
123	0xbd1f4f6f	-0.038894113
124	0x3d3a875a	0.045539238
125	0x3d0aa6c2	0.03385044
126	0xbd00b945	-0.031426687
127	0x3d4380ac	0.047730133
128	0x3cb3a3bd	0.021928662
129	0xbc65fd29	-0.014037409
130	0xbd2f4864	-0.042793646
131	0xbc16f846	-0.009214466
132	0xbd6e90e2	-0.05824364
133	0x3d101b02	0.035182007
134	0x3d37dc58	0.04488787
135	0xbc214860	-0.009843916
136	0x3d7cc1ac	0.061708137
137	0xbc32a04b	-0.010902475
138	0x3c411323	0.011784348
139	0xbd253c9f	-0.040341016
140	0x3aa9428a	0.0012913507
141	0x3caabb64	0.020841308
142	0x3ca70c7b	0.020391693
143	0xbb12367c	-0.0022310307
144	0xbcde41f9	-0.027131068
145	0x3d32a62f	0.043615516
146	0x3d2fc521	0.042912606
147	0x3c15d422	0.009144815
148	0xbcd6b682	-0.026210073
149	0x3c6fe0bd	0.014640984
150	0xbb2d5be5	-0.0026452478
151	0x3d568e5c	0.05238186
152	0x3c14151d	0.009038237
153	0x3c2448fc	0.010027166
154	0x3c04f3c6	0.008114761
155	0x3d129ebb	0.03579591
156	0x3a88088c	0.0010378524
157	0x3d4f4ca2	0.050610192
158	0x3d030b46	0.031993173
159	0xbd3a2134	-0.04544182
160	0xbb192f3e	-0.0023374106
161	0xbd4b862c	-0.049688503
162	0xbd37687f	-0.04477739
163	0x3c42f957	0.011900268
164	0x3c76d231	0.015064762
165	0xbba8d421	-0.005152241
166	0x3d669c13	0.056301188
167	0xbcf8ab28	-0.030355051
168	0xbcdd6125	-0.027023861
169	0xbc2c8c69	-0.010531523
170	0x3a9c0871	0.0011904371
171	0xba89e134	-0.0010519386
172	0x3d654916	0.055977903
173	0xbcaeae6f	-0.02132341
174	0xbcebd7cd	-0.028789425
175	0x3bbb263d	0.0057113455
176	0x3d378d97	0.044812765
177	0x3c8c8ee4	0.01715798
178	0x3d07af22	0.033126004
179	0x3c528943	0.012850109
180	0x3d4834b4	0.048878387
181	0x3d105f12	0.035246916
182	0x3d2d447d	0.042301644
183	0xbbd469a0	-0.006482318
184	0xbd3e8d39	-0.0465214
185	0xbcd9052d	-0.026491726
186	0x3cafdbc4	0.021467097
187	0x3d36ac8e	0.044598155
188	0xbca95e2a	-0.020674784
189	0x3d56db68	0.052455336
190	0x3c45a68c	0.012063634
191	0x3b9434be	0.004522889
192	0x3af900c0	0.0018997416
193	0xbc2c8448	-0.010529585
194	0x3d6241be	0.055238478
195	0xba391b34	-0.00070612435
196	0x3d067366	0.032824896
197	0xbd539dd1	-0.051664177
198	0xbc9feb5e	-0.019521412
199	0x3c9938e3	0.018703884
200	0x3d8afb81	0.06786252
201	0x3d023c7a	0.031795956
202	0x3c76b783	0.015058401
203	0xbd5029db	-0.050821166
204	0xbc418102	-0.011810543
205	0xbd4ecc50	-0.050487816
206	0xbd619946	-0.055077814
207	0x3c19ad40	0.009379685
208	0xbd10ee04	-0.03538324
209	0x3d6640d8	0.056214184
210	0xbd063d78	-0.032773465
211	0x3ca38ec5	0.019965539
212	0x3d111873	0.035423707
213	0xbd4a6f5f	-0.049422618
214	0x3cee217d	0.029068703
215	0xbc183c4d	-0.009291721
216	0x3d02f3f6	0.03197094
217	0x3d724390	0.059146464
218	0xbcb2164d	-0.02173915
219	0xbcdbbc81	-0.026823284
220	0x3d424283	0.04742671
221	0x3bfa2623	0.007633941
222	0xbc0fab4b	-0.008768867
223	0x3d314be0	0.04328525
224	0xbcee8de0	-0.029120386
225	0x3ba5fda6	0.0050656376
226	0x3d356b8d	0.04429202
227	0x3ced1dde	0.028944906
228	0xbd27200c	-0.040802047
229	0x3c6ef7ce	0.014585448
230	0xbd4a44d4	-0.049382046
231	0xbd1a451b	-0.03766356
232	0x3d28012c	0.041016743
233	0xbcc0b571	-0.023524018
234	0xbcc25430	-0.023721784
235	0x3c393631	0.011304424
236	0x3c9ba572	0.018999789
237	0xbd0a6855	-0.033790905
238	0xbd1a692f	-0.037697967
239	0xbd71a75a	-0.05899749
240	0x3c72c5ee	0.014817698
241	0xbd246077	-0.04013106
242	0x3b6ca32f	0.0036108007
243	0xbc3194af	-0.010838672
244	0xbd153ee3	-0.036436927
245	0xbc5685ca	-0.013093421
246	0xbd3491d7	-0.044084396
247	0xbd02bee2	-0.03192032
248	0x3aa16e0d	0.0012316123
249	0xbd4e3ecd	-0.05035286
250	0xbd4aba44	-0.049494043
251	0x3d505fdf	0.05087268
252	0x3c90708e	0.017631795
253	0xbc34662d	-0.011010689
254	0x3c89e568	0.016833022
255	0x3d2ccd45	0.042187948

feature_extract.8.bias f4 [64]
0	0x3d32b11e	0.043625943
1	0x3d40a2ec	0.047030374
2	0xbd24e222	-0.04025472
3	0x3ca58fa2	0.020210091
4	0x3d279c5b	0.040920597
5	0xbd114ab0	-0.03547162
6	0x3cd12722	0.025531355
7	0x3cee17fb	0.02906417
8	0x3c8901b0	0.016724437
9	0xbcb3e8d8	-0.021961614
10	0xbcaa68c2	-0.020801906
11	0x3d57eb14	0.052714422
12	0xbd389e4a	-0.04507283
13	0x3cfbafbb	0.030723443
14	0xbd4f3478	-0.050587147
15	0x3d355905	0.04427435
16	0xbd155caa	-0.036465324
17	0x3c3d12bf	0.011540114
18	0x3d0ef406	0.034900688
19	0x39590a78	0.00020698633
20	0xbc931e42	-0.017958764
21	0x3d637ab0	0.055536926
22	0x3d550907	0.052010562
23	0x3cac0e40	0.021002889
24	0x3c91b602	0.017786983
25	0xbbf2ed4a	-0.007413541
26	0xbcefe755	-0.029285112
27	0x3d17940b	0.03700642
28	0x3c84bfb8	0.0162047
29	0x3d218613	0.039434504
30	0xbd420c6c	-0.047375128
31	0x3c5b6ced	0.013392669
32	0xbbc3eb42	-0.0059789727
33	0xbcace49c	-0.021105103
34	0x3aa44ef0	0.0012535732
35	0xbbe1e4c7	-0.0068937275
36	0xbd00b910	-0.03142649
37	0x3d50863f	0.050909277
38	0xbd5b1a9c	-0.053492174
39	0xbd03b958	-0.03215918
40	0xbd06b112	-0.03288371
41	0x3d186706	0.037207626
42	0xbd1b2d56	-0.037885033
43	0xbc395daf	-0.01131384
44	0x3d522a37	0.05130979
45	0xbd8ce39a	-0.06879349
46	0xbcc1b5e3	-0.0236463
47	0x3cbbffa0	0.02294904
48	0x3d2f963e	0.04286789
49	0xbb2681e5	-0.0025407013
50	0xbc6efa9f	-0.01458612
51	0xbd1db660	-0.038504004
52	0x3a40eba6	0.0007359333
53	0x3caf46bd	0.021396035
54	0x3d222d6d	0.039594103
55	0x3c189071	0.009311781
56	0x3d046599	0.032323454
57	0xbc81cb10	-0.015843898
58	0xbd22dc05	-0.03976061
59	0x3c9afd39	0.018919574
60	0x3ad5c89b	0.0016310395
61	0xbd1974d9	-0.03746495
62	0x3c0e5ba8	0.008688845
63	0x3d60ce7f	0.05488443

feature_extract.10.weight f4 [64]
0	0x3f808375	1.0040118
1	0x3f803339	1.0015632
2	0x3f7cf589	0.98812157
3	0x3f7d498d	0.98940355
4	0x3f804a16	1.0022609
5	0x3f7eb6c2	0.99497616
6	0x3f81d589	1.0143291
7	0x3f8100dd	1.0078388
8	0x3f7df4a4	0.99201417
9	0x3f80b8d2	1.0056403
10	0x3f80642a	1.0030568
11	0x3f808317	1.0040005
12	0x3f7e1773	0.9925453
13	0x3f7e0e8a	0.99240935
14	0x3f7e151b	0.99250954
15	0x3f7ff515	0.9998334
16	0x3f8086b6	1.004111
17	0x3f801a4f	1.0008029
18	0x3f7e7701	0.99400336
19	0x3f7d0672	0.9883796
20	0x3f80757e	1.0035856
21	0x3f7ed7ac	0.9954784
22	0x3f801ec2	1.0009387
23	0x3f806316	1.0030239
24	0x3f7d47ac	0.9893749
25	0x3f7fcb2d	0.99919397
26	0x3f7d4624	0.9893515
27	0x3f80073c	1.0002208
28	0x3f80f15a	1.0073655
29	0x3f802848	1.0012293
30	0x3f80159b	1.0006593
31	0x3f7e397a	0.9930645
32	0x3f800c05	1.0003668
33	0x3f7ecb0b	0.9952857
34	0x3f8058a8	1.0027056
35	0x3f80b919	1.0056487
36	0x3f80b98b	1.0056623
37	0x3f80c5fd	1.0060421
38	0x3f7fcabe	0.99918735
39	0x3f80aaca	1.0052121
40	0x3f8015d6	1.0006664
41	0x3f7f9ef9	0.9985195
42	0x3f81d897	1.0144223
43	0x3f7d0b5b	0.9884545
44	0x3f7cafda	0.9870583
45	0x3f7fc280	0.9990616
46	0x3f80a7f7	1.0051259
47	0x3f815ada	1.0105851
48	0x3f7d5c05	0.98968536
49	0x3f7e9387	0.9944386
50	0x3f7d1a75	0.98868495
51	0x3f810eec	1.0082679
52	0x3f808ed1	1.0043584
53	0x3f7ea49e	0.99469936
54	0x3f7cc56d	0.9873875
55	0x3f81b83a	1.0134346
56	0x3f7de5da	0.9917885
57	0x3f7ed88b	0.9954917
58	0x3f7de6ab	0.99180096
59	0x3f80144d	1.0006195
60	0x3f8057c3	1.0026783
61	0x3f7f5bd9	0.99749523
62	0x3f7e3e9f	0.993143
63	0x3f7ff8b1	0.9998885

feature_extract.10.bias f4 [64]
0	0x3b539000	0.0032281876
1	0x3c07e3bd	0.008294043
2	0xbb5d22f0	-0.0033742748
3	0x3b6d3eb7	0.003620071
4	0xbbdc076e	-0.006714753
5	0xbc6ebc7e	-0.014571307
6	0x3c4b3fad	0.012405318
7	0xbbd7b7b1	-0.006583177
8	0x3c2f7184	0.010708217
9	0x3b7c0616	0.0038455776
10	0x3b62db5e	0.0034615616
11	0x3ca93270	0.020653933
12	0x3c7256c9	0.014791199
13	0x3c5a75ee	0.013333781
14	0xbc874b8a	-0.016515512
15	0x3c49eb4d	0.0123241665
16	0xbc84aafe	-0.016194817
17	0x3b6ca7dc	0.0036110794
18	0x3c7778ab	0.015104453
19	0x3b9e4573	0.0048300563
20	0x3b893aba	0.004187909
21	0x3c058af2	0.008150803
22	0x3c65b31b	0.014019753
23	0x3c322ab0	0.010874435
24	0xbb953368	-0.0045532472
25	0x3c67a9e2	0.014139624
26	0xba9265d9	-0.0011169269
27	0xbc66f884	-0.014097337
28	0x3ba9a141	0.0051766937
29	0x3c43469e	0.011918692
30	0x3b23ebc3	0.002501235
31	0x3b04c5eb	0.002025957
32	0x3aef75e3	0.0018269386
33	0x3b554b7a	0.0032546208
34	0x3c85d9fe	0.016339298
35	0xbc853a24	-0.016263075
36	0x3ba256f6	0.004954214
37	0x3c7647e5	0.015031789
38	0xbc697cb2	-0.014250921
39	0xbbe5084a	-0.0069895135
40	0x3abea07c	0.0014543678
41	0xbb37478b	-0.0027966227
42	0x39e2fd83	0.0004329496
43	0x3a8df6d8	0.0010831011
44	0x3bc9260c	0.0061385687
45	0x3c0acbfa	0.008471483
46	0x3b188814	0.0023274468
47	0x3bdb497c	0.0066921096
48	0xbb24abbc	-0.0025126776
49	0x3be36320	0.006939307
50	0xbc16b0af	-0.009197398
51	0xbb838ae0	-0.004014358
52	0x3b9995c9	0.0046870452
53	0x3bf6e545	0.0075346553
54	0xbc780e97	-0.015140197
55	0x3b3cff96	0.0028838865
56	0xbbe04df5	-0.0068452307
57	0x3b8111c4	0.0039388854
58	0xbc155a14	-0.009115715
59	0x3bad381f	0.005286231
60	0x3c362913	0.011118191
61	0x3c13923f	0.009007036
62	0x3b1f3e60	0.0024298653
63	0x3c413621	0.0117926905

feature_extract.10.running_mean f4 [64]
0	0x3eac8acd	0.33699647
1	0x3f32c25a	0.69827807
2	0x3e5ccc77	0.21562372
3	0x3e04fd80	0.12987328
4	0x3e9547cf	0.29156348
5	0x3e430d75	0.19048102
6	0x3e434ed2	0.19073036
7	0x3e2d6ccd	0.16936035
8	0x3eb00b33	0.34383544
9	0x3f02f795	0.5115903
10	0x3e764aae	0.24051926
11	0x3eeea96d	0.46613637
12	0x3eba5e09	0.36399868
13	0x3e03b318	0.12861288
14	0x3eca1b42	0.3947392
15	0x3f1d1869	0.6136537
16	0x3d128772	0.035773702
17	0x3e91ac6f	0.2845187
18	0x3e61c33b	0.22047131
19	0x3ede2446	0.4338705
20	0x3eb5b7d0	0.354918
21	0x3eec0329	0.4609616
22	0x3e95ed16	0.29282445
23	0x3f2fb16f	0.6863012
24	0x3e9481ca	0.2900527
25	0x3eaad305	0.3336412
26	0x3e9b5c9b	0.3034409
27	0x3d9ca102	0.07647897
28	0x3e479256	0.19489416
29	0x3f0ebd0b	0.55757207
30	0x3cfa2bd0	0.03053847
31	0x3eccb191	0.39979222
32	0x3e4dff99	0.20117034
33	0x3e779e06	0.24181375
34	0x3e3cf84e	0.18454096
35	0x3e13c166	0.14429244
36	0x3e0731c0	0.13202572
37	0x3e0eb78d	0.13937207
38	0x3e11c8eb	0.142368
39	0x3eceb7f6	0.40374726
40	0x3e967e32	0.29393154
41	0x3f4aad16	0.7917036
42	0x3d8f4fde	0.06997655
43	0x3eba6ef0	0.36412764
44	0x3e9c4196	0.30518788
45	0x3e9b1924	0.30292618
46	0x3e449568	0.19197619
47	0x3f39b585	0.725426
48	0x3ee3d259	0.4449642
49	0x3eb64a0f	0.35603377
50	0x3e8ec393	0.27883586
51	0x3f0b7bc5	0.5448573
52	0x3e6b4b6c	0.2297799
53	0x3e7da4bb	0.24769871
54	0x3e9181b8	0.2841928
55	0x3d6fa978	0.058511227
56	0x3dd87916	0.1056997
57	0x3e77cdaf	0.24199556
58	0x3d833eff	0.064085
59	0x3ea2e1e6	0.31812972
60	0x3ec0b666	0.3763916
61	0x3dce5ca0	0.100762606
62	0x3e9b2ca8	0.30307508
63	0x3ea39d94	0.3195616

feature_extract.10.running_var f4 [64]
0	0x3ea81c8c	0.3283428
1	0x3ed480be	0.41504472
2	0x3daf9472	0.085732356
3	0x3daccf50	0.08437979
4	0x3e6a629e	0.22889182
5	0x3e070901	0.13187028
6	0x3dbdc6be	0.09266423
7	0x3e0e18dd	0.13876672
8	0x3e3c220f	0.18372367
9	0x3eaaf923	0.333932
10	0x3defa645	0.11701635
11	0x3e8c4965	0.27399746
12	0x3e54221f	0.20716141
13	0x3d2b407e	0.04180955
14	0x3ee84faa	0.4537328
15	0x3ed384bd	0.4131221
16	0x3c634e4c	0.013873648
17	0x3e3e58c6	0.18588552
18	0x3dbdb299	0.092625804
19	0x3e84dbd9	0.2594898
20	0x3e661ecb	0.22472684
21	0x3e8c4533	0.27396545
22	0x3e344dc9	0.17607798
23	0x3ed4428f	0.4145703
24	0x3e1c7ce8	0.15282023
25	0x3e3ce1c9	0.18445505
26	0x3e5a2f30	0.21307063
27	0x3d1a03c8	0.037601262
28	0x3db63097	0.088959865
29	0x3ea1c119	0.31592634
30	0x3c5c0cd3	0.013430792
31	0x3ebdaf18	0.37047648
32	0x3de2ce6d	0.11074529
33	0x3e5b14f3	0.2139471
34	0x3df0ec4a	0.117638186
35	0x3e0df5ce	0.13863298
36	0x3d710289	0.05884031
37	0x3d96e7c6	0.07368426
38	0x3dbb6a45	0.09151129
39	0x3ef83cc9	0.48483875
40	0x3e4c3fac	0.19946164
41	0x3f12a59b	0.57283944
42	0x3cfb79ed	0.030697787
43	0x3e524406	0.20533761
44	0x3e4a699b	0.19766848
45	0x3e470ec5	0.19439228
46	0x3db85046	0.08999686
47	0x3ec8d9da	0.39228708
48	0x3f552c86	0.8327106
49	0x3e0e1116	0.13873705
50	0x3e114837	0.14187704
51	0x3e84a8a4	0.25909913
52	0x3e059bbb	0.13047688
53	0x3e04c624	0.1296621
54	0x3e53879c	0.206572
55	0x3cd5ee18	0.026114509
56	0x3d968d94	0.07351223
57	0x3e192884	0.14956862
58	0x3cfbd84a	0.030742783
59	0x3e08c237	0.13355337
60	0x3e7a6894	0.24453956
61	0x3d1cb9bb	0.038263064
62	0x3e1e2b78	0.1544627
63	0x3e35484d	0.17703362

feature_extract.12.weight f4 [128, 64, 1, 3, 3]
0	0xbc36873a	-0.011140639
1	0xbd474860	-0.048653007
2	0x3c11b26e	0.008892639
3	0x3d19b71c	0.037528142
4	0xbcd4d25d	-0.025979215
5	0xbd3ef2df	-0.04661834
6	0xbcfd42f0	-0.030915707
7	0x3c34f9b5	0.011045863
8	0xbcd611c4	-0.026131518
9	0xbd3c3a1a	-0.045953847
10	0xbb1938c3	-0.002337978
11	0xbc9c5d52	-0.019087467
12	0xbc9784c9	-0.018495934
13	0xbc7f8db3	-0.015597749
14	0xbc2af7d0	-0.01043506
15	0xbd221f30	-0.039580524
16	0xbc41dff9	-0.011833184
17	0xbcd23f44	-0.025664933
18	0xbc5737cd	-0.013135863
19	0xbcd841da	-0.026398588
20	0x3ba0e64d	0.0049102665
21	0x3cd055c8	0.025431529
22	0xbc925b73	-0.017865872
23	0x3b223a48	0.0024753977
24	0xbc21c89d	-0.00987449
25	0xbc2f05d2	-0.01068254
26	0xbcad61d1	-0.021164807
27	0x3c279d80	0.010230422
28	0xbc1232ae	-0.008923216
29	0xbaf1c9e8	-0.0018447014
30	0xbbf8e4d9	-0.00759564
31	0xbcd93c14	-0.026517905
32	0xbcc01e20	-0.023451865
33	0x3cc37caa	0.023863155
34	0x3cd7ae4a	0.026328225
35	0xbcbaafff	-0.022789
36	0x3c6ecf8b	0.014575849
37	0xbd1e6b8c	-0.038676783
38	0xbc9776de	-0.018489297
39	0xbd137c04	-0.036006942
40	0xbc157f26	-0.009124553
41	0x3bfd0565	0.0077215903
42	0x3c993e06	0.018706333
43	0x3c2a9878	0.010412328
44	0x3cce3e5a	0.025176216
45	0xbadea58d	-0.0016986594
46	0x3d2fdea9	0.042936955
47	0xbd1ec820	-0.038765073
48	0xbbb2cd76	-0.0054566218
49	0xbb235e8c	-0.002492818
50	0x3d03f01b	0.032211404
51	0x3c343002	0.010997774
52	0x3d59eaf8	0.0532026
53	0xbc1a2615	-0.0094084935
54	0x3bed9af9	0.00725114
55	0xbd2b4a67	-0.041819002
56	0x3bb523ea	0.005527963
57	0xbce98425	-0.028505394
58	0xbcba173f	-0.022716163
59	0x3bdaa082	0.006671966
60	0xbc06b319	-0.008221411
61	0x3d29954f	0.041402157
62	0x3d1e29fe	0.038614266
63	0x3a072deb	0.00051566836
64	0x3c346030	0.011009261
65	0x3b5e582f	0.0033927073
66	0xbc2fb9f2	-0.010725485
67	0xbce652d7	-0.028115673
68	0xbcd55b51	-0.02604452
69	0x3c0eb4c9	0.008710095
70	0xb9f2943e	-0.00046268286
71	0x3d80b3e7	0.06284314
72	0xbc97d6d2	-0.018535051
73	0x3bf053f3	0.0073342263
74	0xbce8cd3d	-0.028418178
75	0x3d218198	0.03943023
76	0x3c543bcc	0.01295371
77	0x3c53360a	0.012891302
78	0x3be7ee50	0.0070779696
79	0xbc08c39e	-0.00834742
80	0xbc73ba84	-0.014876012
81	0xbcac14da	-0.021006037
82	0xbd18eed4	-0.03733714
83	0xbc38a005	-0.01126862
84	0xbc843b3b	-0.016141525
85	0x3d322365	0.043490786
86	0x3d3e08e6	0.046395205
87	0xbcdb6519	-0.026781606
88	0x3c02c02c	0.007980388
89	0xbccca429	-0.024980621
90	0x3c4c6222	0.012474569
91	0x3ceae5a1	0.028673949
92	0xbcb12c8c	-0.021627687
93	0xbd0d2b18	-0.034464926
94	0xbc07fefd	-0.00830054
95	0x3d1ad225	0.037798066
96	0x3cc09d46	0.023512494
97	0xbca9601c	-0.020675711
98	0x3c08f7ca	0.008359859
99	0xbd16c4f1	-0.03680891
100	0x3d0566ed	0.03256886
101	0x3c68b83e	0.014204083
102	0xbcc244ef	-0.02371451
103	0x3c3c9794	0.011510748
104	0xbb25757e	-0.0025247033
105	0xbce98268	-0.028504565
106	0xbd447dad	-0.047971416
107	0x3c9652e2	0.018350068
108	0xbd04fc6d	-0.032467294
109	0x3cd6049f	0.02612525
110	0xbc30fa01	-0.010801793
111	0x3ca330d4	0.019920744
112	0x3c736c87	0.014857418
113	0x3ce9407e	0.028473135
114	0xbc8758aa	-0.01652177
115	0x3c69c032	0.014267014
116	0x3bd3492b	0.0064479313
117	0xbbaed20f	-0.0053350995
118	0xbba35fcf	-0.0049857865
119	0x3b4311d4	0.0029765265
120	0x3cc9a0b1	0.024612756
121	0x3cb192d3	0.021676457
122	0xbc8307e8	-0.01599498
123	0xbae5db60	-0.0017536692
124	0xbc626956	-0.013819059
125	0xbcb1d6ea	-0.021708924
126	0x3c953865	0.018215368
127	0x3d1397f0	0.03603357
128	0x3c72cad6	0.014818868
129	0xbbfa98ef	-0.0076476256
130	0x3cd729c8	0.02626504
131	0x3d2c40c3	0.04205395
132	0x3c6eeea9	0.014583268
133	0x3d4025f5	0.0469112
134	0x3cf26bab	0.029592356
135	0xbc81c6ad	-0.015841806
136	0x3c071c37	0.008246473
137	0x3c150506	0.009095436
138	0x3b09e88e	0.0021043154
139	0xbc7cc0b3	-0.015426802
140	0xbcf72a33	-0.03017149
141	0xbd3d1172	-0.046159215
142	0xbcfcdd25	-0.030867169
143	0x3c95bd5e	0.018278774
144	0xbb7f21e4	-0.0038930112
145	0xbcc32d65	-0.023825357
146	0x3d279665	0.04091491
147	0xbd0b9dd3	-0.03408606
148	0x3c25802c	0.010101359
149	0x3d2eabd5	0.04264434
150	0xbcac7a86	-0.021054517
151	0x3b26ab3b	0.002543165
152	0x3d46786d	0.04845469
153	0x3d03753d	0.03209423
154	0x3cca315d	0.024681741
155	0xbc6141d8	-0.0137486085
156	0x3cba041d	0.02270704
157	0x3be465c2	0.0069701383
158	0xbbdfa8d7	-0.006825547
159	0x3d24dfde	0.04025256
160	0x3c563944	0.013075177
161	0x3cf2a039	0.029617416
162	0xbd1d3839	-0.038383696
163	0x3bf64268	0.0075152405
164	0xbd21b78a	-0.039481677
165	0x3b673e23	0.003528484
166	0x3c2134ca	0.009839246
167	0x3cc8d34a	0.024514813
168	0x3c89d408	0.016824737
169	0xbcb766e8	-0.022387937
170	0x3c896419	0.016771363
171	0xbd381356	-0.044940315
172	0x3d093d9f	0.033506032
173	0x3cab656b	0.020922383
174	0xbc201029	-0.009769478
175	0x3c3ecce0	0.011645526
176	0x3cd40fbf	0.025886415
177	0xbd135abe	-0.03597521
178	0x3cbdd98f	0.02317503
179	0x3c034b16	0.008013507
180	0x3d0a6d61	0.033795718
181	0xbb93f70e	-0.004515535
182	0xbb0d827a	-0.0021592663
183	0x3c05e347	0.008171863
184	0x3d13babf	0.036066767
185	0xbced24b9	-0.028948175
186	0x3cafbee8	0.021453336
187	0x3d035111	0.032059733
188	0x3bd93f76	0.0066298796
189	0xbd1e942b	-0.038715523
190	0x3cb32936	0.021870237
191	0x3ca5a0d8	0.020218298
192	0xbc9377da	-0.018001486
193	0x3b465f60	0.003026925
194	0xbc380a43	-0.011232915
195	0xbcdebd3d	-0.027189845
196	0x3d221a66	0.039575957
197	0x3c8d9d2d	0.017286861
198	0xbc29d1ef	-0.0103649935
199	0x3c517095	0.012783189
200	0x3c88442f	0.016634075
201	0x3c41093c	0.011781987
202	0x3c91a118	0.01777701
203	0xbd0dc7da	-0.03461442
204	0xbcd670e0	-0.02617687
205	0x3d0cdbf9	0.03438947
206	0x3bf73aeb	0.0075448654
207	0x3b9faf3e	0.0048731854
208	0xbced3896	-0.028957646
209	0xbc8d30fa	-0.017235268
210	0xbcaa27d0	-0.020770937
211	0x3cadb86d	0.021206105
212	0xbc40691c	-0.01174381
213	0x3cc14feb	0.023597678
214	0xbcfaccb6	-0.030615192
215	0xbbb845f5	-0.005623574
216	0x3d0e634d	0.03476267
217	0xbc993f21	-0.01870686
218	0xb9da42f4	-0.00041630084
219	0xbc7b14f5	-0.015324821
220	0x3c36ad2b	0.011149685
221	0xbcb57498	-0.022150323
222	0xbd01412b	-0.03155629
223	0xbc99c1ec	-0.018769227
224	0x3c43dee0	0.011954993
225	0xbc90cafb	-0.017674914
226	0xbd1d7c91	-0.038448874
227	0xbc8899a4	-0.016674824
228	0xbc8190ed	-0.015816176
229	0x3d0b07cc	0.033942983
230	0xbc0e0a75	-0.008669485
231	0x3cb3be05	0.021941194
232	0x3d3c363d	0.045950163
233	0xbcb4691a	-0.022022773
234	0x3c16111b	0.009159352
235	0xb8553271	-5.0830135e-05
236	0x3cf5eecf	0.0300211
237	0xbae03f08	-0.0017108629
238	0x3c4ca644	0.012490813
239	0xbd1b00a3	-0.037842404
240	0x3d16281f	0.036659356
241	0xbcd9f630	-0.02660665
242	0x3d1c748d	0.03819709
243	0xbcb02463	-0.021501726
244	0x3c0513c1	0.0081223855
245	0xbb5c71fd	-0.0033637278
246	0x3d0348e8	0.03205195
247	0xbd2b776a	-0.04186193
248	0x3d04a031	0.032379333
249	0x3d34ca31	0.044138137
250	0x3c141301	0.009037734
251	0x3d0083d7	0.031375732
252	0x3cba50d8	0.022743627
253	0xbbe20829	-0.0068979454
254	0x3c88749d	0.016657168
255	0xbc058948	-0.008150406

feature_extract.12.bias f4 [128]
0	0xbbb9a14d	-0.0056649805
1	0xbcfc5aab	-0.030804953
2	0xbcb9043e	-0.02258503
3	0xbb6f539a	-0.0036518336
4	0xbcd1d33e	-0.025613423
5	0xbcaccb29	-0.021092968
6	0xbc18fefc	-0.009338137
7	0xbcea63b7	-0.028612
8	0xbcd16049	-0.025558608
9	0xbd1dfd3c	-0.03857158
10	0x3c5bdd64	0.013419483
11	0xbc6215bb	-0.013799126
12	0x3d2290d6	0.039688908
13	0x3c1ab0a5	0.009441529
14	0xbd4782ff	-0.048708912
15	0xbccbb8a6	-0.02486832
16	0x3d3d664e	0.046240143
17	0xbd0d441e	-0.03448879
18	0x3cfdf5d5	0.03100101
19	0x3c7072e4	0.01467583
20	0xbc921c44	-0.017835744
21	0xbb5096fc	-0.0031828275
22	0x3ca67896	0.020321172
23	0xbd3203bd	-0.043460596
24	0xbc587918	-0.013212465
25	0x3a4ad97b	0.00077380956
26	0x3cc7daef	0.024396388
27	0xbc965876	-0.018352728
28	0xbd05e868	-0.032692343
29	0xbcb03b4e	-0.021512654
30	0x3c1cdee0	0.009574622
31	0x3c8954a2	0.016763989
32	0x3ac2d3a1	0.0014864096
33	0x3bf6d6fe	0.0075329533
34	0x3bd94930	0.006631039
35	0x3bc26d8a	0.005933468
36	0xbccbf40e	-0.024896648
37	0xbc0a2410	-0.0084314495
38	0x3c81135f	0.015756307
39	0xbd4afd2f	-0.04955786
40	0x3c3aa5c0	0.011392057
41	0x3bd6e3be	0.0065579107
42	0xbd200fb4	-0.039077476
43	0xbbabda1b	-0.005244506
44	0xbd333c13	-0.043758463
45	0xbbec980f	-0.0072202752
46	0xbb6666f7	-0.0035156587
47	0xbbed0820	-0.0072336346
48	0x3d30ab90	0.043132365
49	0xbd33c478	-0.04388854
50	0x3cbb32be	0.022851344
51	0xbca63081	-0.0202868
52	0x3c7b412a	0.015335361
53	0x3cc8cbf6	0.024511319
54	0x3cbdf0d9	0.023186134
55	0x3c921515	0.017832318
56	0x3d0a71d4	0.03379996
57	0xbcade714	-0.02122835
58	0x3ce7aa13	0.02827934
59	0x3c9c7fe6	0.019103955
60	0xbc9b85c6	-0.018984687
61	0xbc65aef9	-0.0140187675
62	0x3cfd5405	0.030923853
63	0x3c16ac3d	0.009196338
64	0x3b1ce3ba	0.0023939447
65	0x3d1b191d	0.037865747
66	0xbb7ca5ef	-0.0038551053
67	0xbd0664a5	-0.032810826
68	0x3b334a1f	0.0027357412
69	0x3c47c29b	0.012192394
70	0xbd0638a1	-0.03276885
71	0xbd412768	-0.04715672
72	0x3ce42fbe	0.027854796
73	0xbd292560	-0.04129541
74	0xbc497684	-0.012296323
75	0xbcd76be5	-0.026296565
76	0x3b23d076	0.0024996079
77	0xbcf3d913	-0.029766595
78	0xbd039103	-0.032120716
79	0xbc5956bf	-0.013265311
80	0xbb7c37ae	-0.0038485336
81	0x3c1c88c2	0.00955409
82	0xbce4da60	-0.02793616
83	0xbcf08bce	-0.02936354
84	0x3c58ab8f	0.0132244965
85	0xbd380c61	-0.04493368
86	0xbc81cef1	-0.015845748
87	0x3b9b948d	0.0047479332
88	0xbd0d821d	-0.034547914
89	0xbbdc1f32	-0.006717586
90	0x3cf7713f	0.030205367
91	0xbcca582c	-0.024700247
92	0x3b9b810b	0.0047456077
93	0x3d02fd74	0.031979993
94	0x3b91ae93	0.0044458597
95	0xbba91ab9	-0.0051606563
96	0x3c9b853f	0.018984435
97	0xbc517c23	-0.012785944
98	0x3c5eb8da	0.013593877
99	0x3c99ff35	0.01879845
100	0xbd30da04	-0.043176666
101	0xbced7230	-0.028985113
102	0xbc0b77f6	-0.008512488
103	0x3c906c0c	0.017629646
104	0xbc6ea6f1	-0.014566169
105	0xbc1fce1e	-0.009753732
106	0xbd0ebfbb	-0.034850817
107	0x3d34e2bb	0.04416154
108	0x3cfa46ba	0.030551303
109	0x3cb5324f	0.022118716
110	0xbcd463b6	-0.025926452
111	0xba9d659e	-0.0012008434
112	0x3cec7a90	0.028867036
113	0x3d20aacc	0.039225385
114	0x3c20adf3	0.009807098
115	0x3c1abcb1	0.009444402
116	0x3c7250eb	0.0147898
117	0x3cb8267a	0.022479285
118	0x3be008e9	0.0068369997
119	0x3b6c7578	0.003608076
120	0xbbcd93fe	-0.0062737456
121	0x3b52501b	0.0032091204
122	0xbc181501	-0.0092823515
123	0xbb7dfb30	-0.0038754456
124	0x3cd59606	0.026072513
125	0xbbae2570	-0.0053145215
126	0xbc610836	-0.013734868
127	0xbc37dff5	-0.011222829

feature_extract.14.weight f4 [128]
0	0x3f81555c	1.0104175
1	0x3f80b2de	1.0054586
2	0x3f7ff242	0.9997903
3	0x3f80f2cc	1.0074096
4	0x3f805edc	1.0028949
5	0x3f804bcd	1.0023133
6	0x3f80a455	1.005015
7	0x3f83663f	1.0265578
8	0x3f829484	1.0201573
9	0x3f8165df	1.0109214
10	0x3f8173d4	1.0113473
11	0x3f8175e9	1.0114108
12	0x3f7fd31c	0.999315
13	0x3f82d1a2	1.0220225
14	0x3f823510	1.0172443
15	0x3f819d12	1.0126059
16	0x3f80c42f	1.005987
17	0x3f8229b7	1.016898
18	0x3f7fad26	0.9987358
19	0x3f8038ba	1.0017312
20	0x3f810a6c	1.0081306
21	0x3f80427b	1.0020288
22	0x3f811454	1.0084329
23	0x3f81514d	1.0102936
24	0x3f8170ce	1.011255
25	0x3f80d8ba	1.006614
26	0x3f7fa78d	0.9986504
27	0x3f803e77	1.0019063
28	0x3f8024eb	1.0011266
29	0x3f80bb9b	1.0057253
30	0x3f81ae6d	1.0131356
31	0x3f817e31	1.0116636
32	0x3f8058c5	1.002709
33	0x3f80f98c	1.0076156
34	0x3f80496e	1.0022409
35	0x3f8129bf	1.0090865
36	0x3f7e0d50	0.99239063
37	0x3f81ebcd	1.0150086
38	0x3f80b2f7	1.0054616
39	0x3f83406d	1.0254036
40	0x3f81db94	1.0145135
41	0x3f8035a1	1.0016366
42	0x3f7fbaa0	0.9989414
43	0x3f826447	1.0186852
44	0x3f8191bb	1.0122598
45	0x3f80fdbb	1.0077432
46	0x3f81dff6	1.0146472
47	0x3f80927b	1.0044702
48	0x3f82c45b	1.0216173
49	0x3f7ff39d	0.999811
50	0x3f809966	1.0046813
51	0x3f8026d5	1.001185
52	0x3f7eb95f	0.99501604
53	0x3f80b5e0	1.0055504
54	0x3f80d83d	1.0065991
55	0x3f813b63	1.0096248
56	0x3f809447	1.0045251
57	0x3f80745d	1.0035511
58	0x3f8268c9	1.0188228
59	0x3f81dde5	1.0145842
60	0x3f822d08	1.0169992
61	0x3f810ed3	1.0082649
62	0x3f818d5d	1.0121266
63	0x3f819c2f	1.0125788
64	0x3f818b25	1.0120589
65	0x3f81d0c8	1.014184
66	0x3f802999	1.0012695
67	0x3f81f015	1.0151392
68	0x3f834c2e	1.0257623
69	0x3f80f24c	1.0073943
70	0x3f7f8d58	0.9982505
71	0x3f837514	1.0270104
72	0x3f808a5c	1.0042224
73	0x3f80bfad	1.0058495
74	0x3f80b593	1.0055412
75	0x3f8122db	1.0088762
76	0x3f7e2c49	0.99286324
77	0x3f820e30	1.016058
78	0x3f80c7a5	1.0060927
79	0x3f7fbef2	0.99900734
80	0x3f80ca1e	1.0061681
81	0x3f7dd8d0	0.99158955
82	0x3f817869	1.0114871
83	0x3f807770	1.003645
84	0x3f804113	1.0019859
85	0x3f816fba	1.0112221
86	0x3f81c7e2	1.0139124
87	0x3f80c403	1.0059818
88	0x3f815537	1.010413
89	0x3f810f98	1.0082884
90	0x3f821e30	1.0165462
91	0x3f8176a0	1.0114326
92	0x3f81e4eb	1.0147985
93	0x3f80bf82	1.0058444
94	0x3f810339	1.0079108
95	0x3f812ccd	1.0091797
96	0x3f8059e9	1.0027438
97	0x3f811920	1.0085793
98	0x3f7fc979	0.999168
99	0x3f7f84f5	0.9981225
100	0x3f80c539	1.0060188
101	0x3f7ff20a	0.999787
102	0x3f81b154	1.0132241
103	0x3f810437	1.0079411
104	0x3f80bbda	1.0057328
105	0x3f817909	1.0115062
106	0x3f8299b7	1.020316
107	0x3f80a4d1	1.0050298
108	0x3f8086b5	1.0041109
109	0x3f803978	1.0017538
110	0x3f80fc80	1.0077057
111	0x3f82696b	1.0188421
112	0x3f80f3cb	1.00744
113	0x3f819525	1.012364
114	0x3f812837	1.0090398
115	0x3f80151f	1.0006446
116	0x3f813e70	1.009718
117	0x3f825ecb	1.0185179
118	0x3f80fec7	1.0077752
119	0x3f804c1f	1.002323
120	0x3f7e719c	0.99392104
121	0x3f7f5037	0.99731773
122	0x3f816333	1.0108398
123	0x3f7eedb3	0.9958145
124	0x3f81a872	1.012953
125	0x3f81ce5f	1.0141104
126	0x3f7f5ddf	0.9975261
127	0x3f809267	1.0044678

feature_extract.14.bias f4 [128]
0	0xbd5f9f1c	-0.054595098
1	0x3d6699ad	0.0562989
2	0x3d5b4b6e	0.053538732
3	0xbd87a07d	-0.066224076
4	0x3d70c30d	0.058779765
5	0x3d6edbd4	0.058315113
6	0x3d641e89	0.055693183
7	0x3d9ffe93	0.07812228
8	0xbdb395fc	-0.087688416
9	0xbd6cb370	-0.057788312
10	0xbda76b0a	-0.08174713
11	0xbd6abdc3	-0.057309877
12	0x3d8fd976	0.07023899
13	0xbda981a6	-0.082766816
14	0xbd6b3bd1	-0.057430092
15	0xbd71cb1b	-0.059031587
16	0x3d7d8f67	0.061904337
17	0xbd67e41f	-0.056614038
18	0xbd5f28e5	-0.05448236
19	0xbd629a89	-0.055323157
20	0x3d775af2	0.060389467
21	0x3d78f833	0.060783576
22	0x3d635a07	0.05550578
23	0xbd68fbbd	-0.0568807
24	0xbd6e5502	-0.05818654
25	0x3dab389f	0.08360409
26	0x3d5b6c48	0.053570062
27	0xbd728e7a	-0.059217907
28	0x3d5b7464	0.053577796
29	0x3d603a58	0.05474314
30	0xbd671a1d	-0.056421388
31	0xbd61d037	-0.05513021
32	0x3d5fe40a	0.054660834
33	0xbd82137e	-0.06351374
34	0x3d62a69b	0.05533467
35	0xbd719a74	-0.05898519
36	0x3d52b557	0.05144247
37	0x3d6af2e3	0.05736054
38	0x3d667968	0.056268126
39	0xbda76fac	-0.081755966
40	0xbd715bee	-0.05892556
41	0xbd67bdf6	-0.056577645
42	0x3d5e3764	0.054252043
43	0xbd6a43fb	-0.057193737
44	0xbd7e6558	-0.062108368
45	0x3d64e476	0.05588194
46	0x3d617f9b	0.055053335
47	0xbd747e8e	-0.059691004
48	0x3daf54ad	0.085610725
49	0x3da7a756	0.08186214
50	0x3d603af6	0.05474373
51	0x3d88adc1	0.06673766
52	0x3d578159	0.05261359
53	0x3d6dae3c	0.05802749
54	0x3d65cfa4	0.056106225
55	0xbd7ed0c9	-0.06221083
56	0xbd5f9510	-0.054585516
57	0x3d621c9c	0.055203065
58	0xbd99c9a5	-0.07509164
59	0x3d898b2e	0.067159995
60	0xbd662faf	-0.05619782
61	0xbd6eae7b	-0.058271866
62	0xbd6d9c3d	-0.05801033
63	0xbd91ed93	-0.07125392
64	0xbd794a76	-0.060862027
65	0xbd68ade1	-0.05680645
66	0x3d611070	0.054947317
67	0xbda63d59	-0.0811717
68	0xbda73048	-0.08163506
69	0x3d6e37bb	0.058158617
70	0x3d62ee20	0.055402875
71	0xbda8d5d9	-0.08243913
72	0xbd7ae2f3	-0.061251592
73	0x3d677e9e	0.056517236
74	0x3d61dcb9	0.05514214
75	0x3d7e4db8	0.062085837
76	0x3d3b5edb	0.045744758
77	0xbd70df9c	-0.058807
78	0x3d5e9d89	0.054349456
79	0x3d876f2b	0.066130005
80	0x3d62fa7d	0.055414665
81	0xbd3ab40e	-0.04558187
82	0xbd70f08d	-0.058823157
83	0x3d9ccb5d	0.07655976
84	0xbd5ab91d	-0.053399194
85	0xbd7097e5	-0.058738608
86	0xbd6edb7f	-0.058314797
87	0xbd6c4d16	-0.057690702
88	0xbd797043	-0.060898077
89	0x3d816f90	0.06320107
90	0x3d6b696c	0.057473585
91	0xbd633918	-0.05547437
92	0xbd757273	-0.0599236
93	0xbd64c080	-0.055847645
94	0x3d6518eb	0.055931967
95	0x3d641a5a	0.055689193
96	0xbd5fb0be	-0.054611914
97	0x3d7bc83d	0.06147026
98	0x3d5df517	0.054188814
99	0xbd5c3a8d	-0.053766776
100	0x3d60816b	0.054810923
101	0x3d64f157	0.055894222
102	0xbd6b6e87	-0.057478454
103	0x3dac1ba1	0.08403707
104	0x3d7b63f8	0.061374635
105	0xbd636e92	-0.05552537
106	0xbd7fddf9	-0.06246755
107	0x3d5f51cf	0.054521378
108	0xbd6fe7ba	-0.0585706
109	0x3d6f90c1	0.058487657
110	0x3d644a2b	0.055734795
111	0xbd82bfd9	-0.06384248
112	0x3d76a278	0.060213536
113	0xbd81eb7a	-0.06343742
114	0x3d70d413	0.058796
115	0x3d9325c0	0.071849346
116	0xbd729f68	-0.059234053
117	0xbd68bcea	-0.056820787
118	0x3d6c983f	0.05776238
119	0x3d615a33	0.05501766
120	0x3d5567d9	0.05210099
121	0xbd58c591	-0.05292279
122	0xbd6eecea	-0.058331408
123	0x3d5b1227	0.05348411
124	0xbd64ce2f	-0.055860694
125	0xbd6e0392	-0.058108874
126	0x3d5cea43	0.053934347
127	0x3d843572	0.064555064

feature_extract.14.running_mean f4 [128]
0	0x3e18c12a	0.14917436
1	0x3f3a0e9d	0.7267855
2	0x3f2c3f3d	0.67283994
3	0x3ea65673	0.3248783
4	0x3e1afacd	0.15134735
5	0x3e97c763	0.29644307
6	0x3eee1850	0.46502924
7	0x3e534c15	0.20634492
8	0x3e372476	0.17885002
9	0x3eafa0c0	0.3430233
10	0x3ec4e57e	0.3845634
11	0x3e8ed9da	0.27900583
12	0x3eef629d	0.46754923
13	0x3de50117	0.111818485
14	0x3d38e915	0.04514416
15	0x3dc8c537	0.09803241
16	0x3f17e128	0.59327936
17	0x3e686aa7	0.22696935
18	0x3e660b40	0.22465229
19	0x3ecaf430	0.39639425
20	0x3e6781ef	0.2260816
21	0x3ecf09ca	0.40437156
22	0x3efe4229	0.4965985
23	0x3dd69559	0.104777046
24	0x3e7c4957	0.24637352
25	0x3e74eea7	0.23919164
26	0x3e27b2e6	0.16376838
27	0x3f1c2936	0.6100038
28	0x3eb23600	0.34806824
29	0x3f4523f1	0.7700797
30	0x3e329c9c	0.17442554
31	0x3eb11365	0.3458511
32	0x3e5433ab	0.20722835
33	0x3f3a1728	0.72691584
34	0x3f182062	0.5942441
35	0x3f019548	0.5061841
36	0x3df4857f	0.11939525
37	0x3d9c6081	0.07635594
38	0x3e5ac04a	0.21362415
39	0x3df5d754	0.12003961
40	0x3e2d7434	0.16938859
41	0x3f398c65	0.7247985
42	0x3f0af70f	0.5428323
43	0x3e413798	0.18868864
44	0x3e5e1e21	0.21691181
45	0x3e94ecb5	0.29086843
46	0x3d3528f2	0.0442285
47	0x3e2b5608	0.16732037
48	0x3e72ad5f	0.23698948
49	0x3ec1f043	0.37878618
50	0x3f1ed68b	0.62046117
51	0x3de46724	0.11152485
52	0x3eb3add6	0.35093564
53	0x3ee01c2f	0.43771502
54	0x3e783177	0.2423762
55	0x3e3a97e2	0.18222001
56	0x3f132592	0.574792
57	0x3f405d42	0.751423
58	0x3e9a8c60	0.30185223
59	0x3e8e728b	0.27821764
60	0x3dfc866f	0.12330329
61	0x3e3b88a9	0.1831385
62	0x3e160881	0.14651681
63	0x3f1af9e6	0.60537565
64	0x3e839e70	0.25706816
65	0x3f228bad	0.6349438
66	0x3e9f495d	0.3111066
67	0x3e388b23	0.18021826
68	0x3e5112a6	0.2041727
69	0x3f3c1236	0.7346529
70	0x3e00bfe7	0.12573205
71	0x3d67d393	0.056598257
72	0x3e8dc3da	0.27688485
73	0x3eea2f29	0.45739105
74	0x3e801822	0.25018412
75	0x3e95ddc1	0.29270747
76	0x3e9ed0d7	0.31018707
77	0x3eb7afa2	0.35876185
78	0x3e4390e9	0.19098248
79	0x3ecc4451	0.3989587
80	0x3eb60033	0.35547027
81	0x3f043b12	0.51652634
82	0x3e6b40ed	0.22973986
83	0x3eb5bd4b	0.35495982
84	0x3f19ad8f	0.60030454
85	0x3e0ee5b4	0.13954812
86	0x3dcb1545	0.09916166
87	0x3e515646	0.20443067
88	0x3eccc34c	0.3999275
89	0x3e684197	0.2268127
90	0x3e28d9f8	0.16489398
91	0x3db4200f	0.08795177
92	0x3e1738e1	0.14767791
93	0x3e7a905e	0.24469134
94	0x3e54419b	0.20728152
95	0x3e8bd32f	0.27309558
96	0x3f0116da	0.50425494
97	0x3f0ce5b5	0.55038005
98	0x3cf3074a	0.029666562
99	0x3f542535	0.82869273
100	0x3f076a56	0.5289663
101	0x3ebba726	0.36650962
102	0x3dc8ba37	0.09801143
103	0x3ea6812c	0.32520425
104	0x3cec5a11	0.02885154
105	0x3ed99553	0.42496738
106	0x3de8e3c2	0.11371566
107	0x3f200e75	0.6252206
108	0x3f43cf8a	0.76488554
109	0x3f3c6112	0.7358562
110	0x3e7f88b2	0.24954489
111	0x3d678702	0.056525238
112	0x3ec23078	0.37927604
113	0x3f57dfc7	0.8432583
114	0x3e42e6d1	0.19033362
115	0x3f5b119e	0.85573757
116	0x3eb8a2b6	0.3606164
117	0x3def5cff	0.116876595
118	0x3ea2852e	0.31742233
119	0x3e2e17c6	0.17001256
120	0x3c7e4ee0	0.015521735
121	0x3d684a6f	0.05671161
122	0x3e828dd7	0.2549884
123	0x3f372ea1	0.71555525
124	0x3e1ac5a2	0.15114453
125	0x3e05acb4	0.13054162
126	0x3ec7623e	0.3894214
127	0x3ed8e8b7	0.42365047
